KMeans/model.pth (torch, 22907 bytes, 8 tensors)

layers.1.weight f4 [64, 37]
000000 6a 6b a9 bf f6 c5 56 be 9d 5a b5 bc 7e cf 73 be
       -1.3235905 -0.20973954 -0.022137934 -0.2380962
000010 23 bc 2b be 4a 39 cf 3e 37 bd ad 3e 9e 40 10 bf
       -0.16770987 0.40473396 0.33933422 -0.563486
000020 67 2e 23 3f 30 8c a6 be 46 7d d8 bd d4 1e ce 3e
       0.6374268 -0.3252883 -0.10570769 0.40257895
000030 3b a7 f5 bc 41 1b 1c 3f 51 58 18 be 0e 1a a3 bc
       -0.029986968 0.60979086 -0.1487744 -0.019909885
000040 84 a1 b9 be 33 c7 e1 3e 23 23 2e 3e fd 8e 88 3e
       -0.3625604 0.4409729 0.17005591 0.2667159
000050 f8 ce 1e be dc 9e 48 be 2d 66 d5 be ba 5e 5d be
       -0.1550864 -0.1959185 -0.41679516 -0.21618167
000060 27 da 18 be 9c ee b4 3e f9 6e 0f bd 2f f2 e0 be
       -0.14926969 0.35338295 -0.03501794 -0.4393477
000070 b1 47 9e bd 42 68 63 3e b6 4d 15 be 1b cc a8 3e
       -0.07728518 0.2220774 -0.14580426 0.3296822
000080 36 9d af bd 74 25 af 3e b9 6a 7d be 1c 42 a2 3e
       -0.085749075 0.34208262 -0.24747743 0.31691062
000090 66 15 bb 3e 30 dc 1e 40 c2 fa 39 3f 45 fa b6 be
       0.36539763 2.4821892 0.7264825 -0.35737815
0000a0 31 3e 8b be e1 3d 03 be ed 7b b3 bd 40 8c 6c be
       -0.27195886 -0.12816574 -0.08763871 -0.23100376
0000b0 78 1f 0e bf 14 d8 73 be b2 99 b2 3a 38 80 48 be
       -0.5551677 -0.23812896 0.0013626127 -0.19580162
0000c0 bb fa ec 3c f0 03 80 be 04 d4 2d 3c 51 80 80 3c
       0.028928151 -0.25003004 0.0106096305 0.015686186
0000d0 77 56 b3 3d 5d bb 57 3e a0 09 a5 be 3d 5a ee bd
       0.08756726 0.21067567 -0.32233906 -0.11638305
0000e0 b9 f7 a3 be 0a 9e 1b 3d 19 6d 9e be 85 75 44 3f
       -0.32024935 0.037992515 -0.3094261 0.7674182
0000f0 98 b7 1c 3d 7a b1 fe 3e 81 a1 29 be 9a 6a 9e 3c
       0.038261026 0.4974478 -0.16565515 0.019337941
000100 82 22 e0 bc 1b cb e1 bd 82 17 01 bf ae 6d b5 be
       -0.027360205 -0.110250674 -0.50426495 -0.3543524
000110 8d 63 22 3e b7 af 5e 3d 67 ee 39 bd a4 f4 ad be
       0.15858288 0.054366793 -0.045393374 -0.33975708
000120 27 4e c5 bb 65 9d d8 3c 6c 3d 74 bf 48 c9 55 be
       -0.0060212794 0.026442239 -0.9540622 -0.20877564
000130 10 f4 0c be 50 05 bc 3c e1 8f bc 3c 8e 9c ad 3d
       -0.13764977 0.022951752 0.023017826 0.08477126
000140 e9 51 af 3d 20 f3 31 3f d2 be 1b 3b 0e f5 c4 3e
       0.08560545 0.69511604 0.002376486 0.38468212
000150 e8 3b e6 be 6f 69 b2 3e 58 3d 0f 3e 56 78 c5 be
       -0.4496758 0.34846064 0.13988245 -0.38568372
000160 0a 18 62 be f7 8e 87 be f4 39 19 be a4 d9 20 3e
       -0.22079483 -0.2647626 -0.14963514 0.15708023
000170 74 b0 3d 3e 7a 60 90 be 5b fa 87 3e f7 1b 9e bd
       0.18524343 -0.28198606 0.26558194 -0.077201776
000180 3f 14 71 bd 9a 1e 2f be 8d 03 15 bf 8a 7a 29 3f
       -0.0588572 -0.17101517 -0.58208543 0.66202605
000190 70 87 5c 3e 16 42 a0 bd 7b 00 22 3f 15 d0 89 be
       0.2153604 -0.07825105 0.63281983 -0.26916566
0001a0 63 f5 98 be 6a 88 83 bc a8 f5 8d be bd cd e8 3d
       -0.29874715 -0.016056258 -0.27726483 0.113673665
0001b0 02 20 33 3e 6d 5e a6 bc 88 2d bf bd 16 cc c8 3f
       0.17492679 -0.020308698 -0.09334856 1.5687282
0001c0 14 4e 96 3e d4 f1 a5 3d 3c aa 05 be 20 5f c8 bd
       0.29356444 0.08102766 -0.1305322 -0.09783769
0001d0 c8 a7 f0 be dc a0 86 3c 5c bb 5b 3d 4d 2c 62 3d
       -0.47003007 0.016434126 0.053645477 0.05521803
0001e0 35 63 52 3e 7b bc a6 bd da 55 1e be 9d ff 89 be
       0.20545657 -0.081414185 -0.15462437 -0.2695283
0001f0 fa 36 db be 81 f2 11 bf 81 6c 15 be 52 cc 92 3e
       -0.4281538 -0.57010657 -0.14592172 0.2867151
000200 2c 9d 87 3e a2 8b b8 3d 15 e5 52 3d 17 4a 3d 3e
       0.264871 0.09011008 0.051488 0.18485294
000210 c6 67 0a 3e 76 47 fa bc 1b c1 8f 3e e9 b1 b7 3c
       0.13516149 -0.030551653 0.28077015 0.022423701
000220 ac 08 70 3e 68 b2 02 bf a6 0f 27 3f 95 a5 6c be
       0.23440808 -0.51053476 0.6525825 -0.2311004
000230 02 fb 3e be b1 5a 8d 3e 82 a0 10 bf ed 2a f7 3e
       -0.1865044 0.27608255 -0.56494915 0.48274937
000240 90 5e 8c be 4e c3 84 3c 9f c7 f7 3d b7 f7 c6 3c
       -0.27415895 0.01620641 0.120986216 0.024288042
000250 1b 62 0d c0 c4 c8 61 3e 69 69 18 3d c2 2c 7d be
       -2.209113 0.22049242 0.037209902 -0.24724105
000260 ec 1e bc 3e cc aa 8e 3e 24 bf 90 be e3 b5 5d 3e
       0.36742342 0.27864683 -0.2827083 0.21651416
000270 fa f7 35 be 3a 23 ba bd ae a6 81 be ee fe f8 bd
       -0.17770377 -0.0908875 -0.2532248 -0.12157999
000280 41 58 59 3e 6d 8f dd bd 17 cc 5b 3e 8b 62 a9 3e
       0.21225072 -0.10818372 0.21464573 0.33082995
000290 bd 2e 9a be cb 9c a3 bd fa 0d 69 3e 04 ec 16 3e
       -0.30113783 -0.0798889 0.22759238 0.1473847
0002a0 fd db 8f bd 77 e9 ae bd a1 bf db bd ed b7 45 be
       -0.07024381 -0.08540624 -0.1072991 -0.19308443
0002b0 1d ca a0 3e e6 3e 12 3f 47 27 cb 3e 7b 0b cc 3d
       0.314042 0.57127225 0.39678404 0.09963127
0002c0 43 78 59 3f 78 b2 85 bd a1 35 8c 3e f8 0c 0b 3e
       0.8494913 -0.06528181 0.27384666 0.13579166
0002d0 78 2a 20 be 17 b8 e6 3e 0b be a8 3e d1 19 ad 3e
       -0.156412 0.45062324 0.3295749 0.3380876
0002e0 35 47 54 3e d7 7b 4b bf 3d cc c1 3e cc 79 bd 3d
       0.20730288 -0.7948584 0.37851134 0.092517465
0002f0 9a 82 b6 b9 22 56 8a be 0e eb 85 be a8 f3 01 bf
       -0.0003481105 -0.2701884 -0.26155895 -0.50762415
000300 b4 bc 6c 3f 4e 55 90 be 34 0f b1 be df d8 2f 3e
       0.9247544 -0.28190082 -0.34581912 0.17172574
000310 8e 47 0b bd 7f 3e ee bb 82 04 e1 3e b7 91 f4 be
       -0.034003787 -0.0072706337 0.43948752 -0.47767422
000320 65 8b 2a 3e fd 63 90 3e 14 df f4 3d 82 c3 47 3e
       0.16654737 0.28201285 0.11956611 0.19508174
000330 dc f9 10 bb 7b 1e 8b 3e ee 60 81 3d 8c 5a 83 bd
       -0.0022121584 0.27171692 0.06317316 -0.06413755
000340 2e 26 a0 3e ed cf a1 bd ea 38 e0 3d f4 2c ff be
       0.3127913 -0.07900987 0.109483555 -0.49838984
000350 65 0f b2 bd da 61 6f 3e bc 2a 8f 3d ae fe 72 3d
       -0.086943425 0.23377171 0.06990573 0.059324913
000360 9b 10 23 bc 27 ec ec 3e 81 a9 a8 3b 01 8a 40 3e
       -0.0099526895 0.4627392 0.0051471596 0.18802644
000370 a0 aa bf 3d e0 3a 7f 3e 1f 38 8c bf 50 66 12 3e
       0.09358716 0.24924803 -1.0954627 0.14296842
000380 d6 74 9b be 98 95 ad 3e f0 50 89 be 59 bd 49 3e
       -0.30362576 0.33903193 -0.26819563 0.19701137
000390 46 c6 dc 3e 2c ea 24 be 64 16 62 3d e6 0e 91 3e
       0.4312002 -0.16104954 0.055197135 0.2833168
0003a0 09 06 97 3d 62 77 f7 3c 4e 91 a9 3e 52 02 0e 3f
       0.07374198 0.030208293 0.3311867 0.5547229
0003b0 6e 78 9e bd 4a 9d 37 be c7 a5 99 3e 56 bf 75 be
       -0.07737814 -0.17931095 0.3000929 -0.2399877
0003c0 d5 43 04 3e ca cd 57 3d d1 a7 46 3e 97 27 a4 bd
       0.12916501 0.05268649 0.19399954 -0.08015364
0003d0 f6 31 44 3f 91 16 a1 bd 51 f7 02 bf c9 1d bf bd
       0.76638734 -0.07865632 -0.51158625 -0.09331853
0003e0 0d c8 28 be 75 71 3d 3f 10 4e e6 3e 7c f8 d0 3e
       -0.16482563 0.74001247 0.44981432 0.4081458
0003f0 82 dd fc 3c 55 14 9d 3d 57 0c 32 3f c2 f1 2d 3e
       0.030867342 0.07669894 0.6955008 0.16986755

layers.1.bias f4 [64]
000000 74 4e bc be bc 09 b8 3c 9f 2b 50 bf 41 fb 92 be
       -0.36778605 0.02246558 -0.8131656 -0.28707317
000010 15 07 bc bd 61 4c f6 be c0 6e 9d be d2 c5 7f bf
       -0.09181038 -0.48105147 -0.30748558 -0.99911225
000020 00 4c 72 be ed 50 a4 be 25 71 8f be ed 81 11 3d
       -0.23661804 -0.3209299 -0.2801601 0.035524298
000030 6b ee ac be 5d e3 16 bf 12 4a 80 be 41 0f 4d bf
       -0.33775648 -0.5894068 -0.2505651 -0.801014
000040 42 d4 a9 3d dc 94 cf bd 1c 5b ee be 30 a4 ea be
       0.08292438 -0.101358145 -0.46553886 -0.4582839
000050 0a 7f 2b bd 0e ea 22 bf d9 f1 81 be c5 7b 38 bd
       -0.0418692 -0.6363839 -0.25379828 -0.04503991
000060 6b 3a f2 be a4 8b 08 bf e0 c0 7b bf a6 d7 82 be
       -0.47310194 -0.53338075 -0.9834118 -0.25555152
000070 a9 d9 cf bd a4 3c 6e be 8e 08 f1 bd 3e f3 dd be
       -0.10148937 -0.2326532 -0.1176921 -0.43349642
000080 fe bb e3 be 22 71 24 bf a9 09 0a be 91 c2 1f 3c
       -0.44479364 -0.64235127 -0.13480248 0.009750978
000090 ba c6 ec be a9 5a be be 3a 71 e7 be be dd 73 be
       -0.46245366 -0.37178543 -0.45203573 -0.23815057
0000a0 f9 07 a8 bf 12 65 33 be a8 2d 0e bf 0f c9 21 be
       -1.3127433 -0.17519024 -0.55538416 -0.15799354
0000b0 af b9 2f be a4 13 53 bf 18 8a 89 be ed f6 bd bf
       -0.17160676 -0.82451844 -0.2686317 -1.4840981
0000c0 55 94 3b bc b3 65 29 bf 5c 85 af bd 0c f5 8d be
       -0.011448939 -0.66170806 -0.08570358 -0.27726018
0000d0 78 14 f8 bd d4 cf fb 3d 00 c3 38 3d 99 15 89 be
       -0.12113279 0.122954994 0.04510784 -0.2677429
0000e0 0c c0 ba be 9d 6c fb bd 81 f2 19 bd 13 fa b5 3d
       -0.36474645 -0.12276576 -0.037584785 0.088855885
0000f0 27 d4 b0 bd 46 f7 22 be 0f bd 22 bf 0f 3a 23 bf
       -0.08634215 -0.1591464 -0.6356973 -0.63760465

layers.3.weight f4 [32, 64]
000000 a0 06 1e be 4e d1 81 3e 0b 53 b7 bf 2d 6a 74 3e
       -0.15432215 0.25355 -1.4322218 0.23868628
000010 9c 13 6e be a8 21 04 3e 5f 4c 31 bd 0e f0 56 bf
       -0.23249668 0.12903464 -0.043285724 -0.83960044
000020 cc 9c d1 bd 65 8a 6f 3e bd b3 2e 3e 66 51 d1 3b
       -0.10234985 0.23392637 0.17060752 0.0063878773
000030 3b 19 a5 be ed 86 e6 bd 7f 41 18 be 4b 94 83 bf
       -0.32245812 -0.11256204 -0.14868735 -1.027963
000040 89 7b 1a bf b2 03 a7 bc a9 64 4e bd b3 23 69 bf
       -0.6034475 -0.020387504 -0.050388966 -0.910701
000050 64 1f cb be 7b 5c 4a be a8 78 84 3e e5 7a 4c bd
       -0.39672387 -0.19761841 0.25873303 -0.04992189
000060 1e f7 a1 be b0 b8 99 3e 30 af 93 bf 25 69 cb 3e
       -0.31633848 0.30023718 -1.1537838 0.39728656
000070 2e 47 6f be 05 51 94 bd 70 0e 2f bf 04 4b 10 bf
       -0.23366997 -0.07242016 -0.68381405 -0.56364465
000080 b7 3d 23 3e 1b 39 85 bf 01 f7 79 3e 31 bd 0a be
       0.15941511 -1.0408052 0.24410631 -0.13548733
000090 d4 c8 9b be 29 67 99 bf 59 8d 1c 3f 52 70 5a bf
       -0.30426657 -1.1984607 0.6115318 -0.8532764
0000a0 a6 d3 bc bf 46 09 89 3e bc 87 a2 bd ed c1 4c 3e
       -1.475209 0.26764888 -0.079360455 0.19995852
0000b0 ac a5 30 bd 95 8a ed bd 90 de cd be c3 10 3f 3f
       -0.043126747 -0.11598698 -0.40208864 0.7463495
0000c0 97 88 a8 bf 3f 68 36 bf 94 f6 64 bd 26 cc a9 3d
       -1.3166684 -0.71252817 -0.055899218 0.08290891
0000d0 20 88 0a bf 57 a6 90 3e 06 cc 10 bf b4 f4 a5 be
       -0.5411396 0.28251907 -0.56561315 -0.32413256
0000e0 f9 70 fe 3d 65 1c f4 be 49 24 11 3e 5c be 9a 3e
       0.124238916 -0.47677913 0.14173998 0.30223358
0000f0 e2 d9 9f 3e 7c 8a e0 be 5f 9d 62 3e 14 d1 87 3b
       0.3122092 -0.43855655 0.22130345 0.004144797
000100 b7 d4 7e 3e ba 86 e0 3e 71 bf 55 bf 76 77 e7 bd
       0.24885832 0.43852788 -0.8349524 -0.11302082
000110 3b 07 6d bf 23 55 55 bf f2 6c b8 bd 87 83 43 3e
       -0.9258916 -0.83333033 -0.09005155 0.19093142
000120 fc dd e5 bd 7a f3 78 bf 93 32 10 3e 15 5c 2d 3e
       -0.11223981 -0.97246516 0.14081793 0.16929658
000130 e6 09 10 3e 9d 40 b5 be 0b 11 3f 3c b4 24 6f bf
       0.14066276 -0.3540086 0.011661778 -0.9341538
000140 00 07 ac be 69 66 17 be 49 78 78 3e 6a 1c 33 3e
       -0.3359909 -0.1478516 0.24264635 0.17491308
000150 50 99 99 bf 1c a0 78 bf 93 ce fb bc db 70 60 3e
       -1.1999912 -0.9711931 -0.03073815 0.21918051
000160 e5 68 9d be e0 f2 aa 3e 74 08 05 3e 87 e8 5b 3e
       -0.3074409 0.33388424 0.12991506 0.21475421
000170 71 3c 5f 3e 3d 5d e4 3d 06 b8 ea 3c a9 e5 06 be
       0.218004 0.11150596 0.028652202 -0.13173546
000180 70 71 73 be c8 57 23 bf 2c aa fa 3e 9c 61 e6 3d
       -0.23773742 -0.6380582 0.48957956 0.11249086
000190 40 21 0e 3e d3 01 cc bd a3 3d 40 3c 1c 0b 4e 3e
       0.13879871 -0.099612854 0.011733445 0.20121425
0001a0 0a b2 c7 3e 6f 66 7a be 9d 5e 0a be 0c e2 51 bf
       0.3900302 -0.24453138 -0.13512655 -0.81985545
0001b0 bb 16 e4 3e dc 3b 1e 3c e0 7d 0d bf d6 6b d7 bb
       0.44548592 0.009657826 -0.55270195 -0.0065741343
0001c0 f8 44 55 be d0 7c 2a bf 41 11 6e bf 8b 34 53 3d
       -0.2082709 -0.665967 -0.9299508 0.05156378
0001d0 ee cd b1 3e b0 3d 27 bf 39 df 50 be c6 2a 89 3e
       0.34727424 -0.653285 -0.20397653 0.26790446
0001e0 5d 16 4e bd 2c df 16 3e e4 6e 0f 3e 2d 1b 43 3e
       -0.050314296 0.14733571 0.14007145 0.19053335
0001f0 68 e1 6c 3e be 2e 5e 3e fb 1e 7b bf 82 3d 63 be
       0.2313286 0.21697518 -0.9809415 -0.22191432
000200 02 b2 a5 be 09 10 20 bd 4f 53 16 3e 29 06 74 3e
       -0.32362372 -0.039077792 0.14680217 0.23830475
000210 92 c2 4e be 88 8f 99 be cb 0f ee 3d 27 f9 53 bf
       -0.2019141 -0.29992318 0.11624106 -0.8280205
000220 2a cc 3b be bc 5a 1d 3e a9 8f 45 bd 68 8b dc 3d
       -0.18339601 0.15366644 -0.048232708 0.10768777
000230 18 a1 e3 3e d3 02 d0 bd 76 1c 9d 3e ab 33 d6 be
       0.44458842 -0.10156789 0.30685776 -0.41836295
000240 78 47 2e bd 1e 47 b0 be ba 14 52 3e b9 79 5d 3d
       -0.042548627 -0.34429258 0.20515719 0.054071162
000250 d8 16 5c 3e 8a 45 1c be 33 9f a6 be 23 cb a7 bd
       0.21493089 -0.15260902 -0.32543334 -0.08193042
000260 64 94 5b be 43 8b b3 3e 04 e4 76 bf f6 06 e4 3e
       -0.21443325 0.35067186 -0.96441674 0.4453656
000270 b5 22 82 3d 28 7a 07 3e 36 a1 0b 3e b2 77 20 3e
       0.06354276 0.13230193 0.13635716 0.1567066
000280 3d 51 4a be 15 b7 62 3d 39 27 38 bd 8d 91 c8 3d
       -0.19757552 0.055350382 -0.04495928 0.097933866
000290 04 f9 0a bc 98 aa 7a 3e 09 f8 5c bd d9 01 be 3e
       -0.0084822215 0.24479139 -0.053947482 0.37110785
0002a0 d7 b9 06 bf c3 d4 34 be 5e fc b6 bc 10 14 03 be
       -0.5262732 -0.17659287 -0.022337135 -0.12800622
0002b0 c5 d9 78 3d 86 af dc be fd e5 ac 3c cd 4e 65 bf
       0.060754556 -0.43102664 0.02110576 -0.89573365
0002c0 e6 c7 73 3e 2c b6 cc be b2 87 a4 be a7 66 41 3c
       0.23806724 -0.39982736 -0.32134777 0.011804259
0002d0 65 9a b8 3e de 5e 32 be 05 9a 75 3e 6d 47 a9 3e
       0.36055294 -0.17419001 0.23984535 0.33062306
0002e0 4d 97 b9 3c 7a ac f5 3d 8f 33 78 bd 0a cc db 3e
       0.022655154 0.11995788 -0.060596045 0.42929107
0002f0 3b be 00 3f 58 e1 77 3d 5c a8 3d 3e e9 f1 5d 3e
       0.5029027 0.06051764 0.18521255 0.21674313
000300 77 6c 9d be 66 db 4e 3e 0e 47 82 3e ee 87 f2 bd
       -0.30746815 0.20200881 0.25444835 -0.11842333
000310 e9 eb a3 3d 62 85 5c bf b4 d3 1d 3e 79 50 cb be
       0.08003981 -0.86141026 0.1541279 -0.39709833
000320 55 58 27 3e 8d 7c 45 3d 44 02 90 3e e9 13 44 bf
       0.1634229 0.048214484 0.2812673 -0.7659288
000330 5c 7a 42 be 82 2a b0 3e e1 0c a5 3e d8 33 7a be
       -0.18991989 0.3440743 0.32236388 -0.2443384
000340 d2 61 ea 3d 46 0d 3a bd 8e cb 32 3e 8c a4 15 bf
       0.11444439 -0.045422815 0.17460462 -0.58454204
000350 ff f5 17 bf 8a 28 54 3e 0c 47 86 3c 97 97 07 bf
       -0.59359735 0.2071859 0.0163913 -0.5296568
000360 93 b1 ab be 77 25 13 3f b7 a8 49 3e 23 70 69 bf
       -0.33533916 0.5747904 0.19693266 -0.9118673
000370 2e d2 f7 bd 6f c4 65 3d cc 0a 46 be a4 d4 20 3f
       -0.121006355 0.056095537 -0.19340056 0.62824464
000380 29 26 f4 bd 1e 69 42 3e 8c 8d c5 3d 26 af 8c 3e
       -0.11921341 0.18985412 0.096461385 0.27477378
000390 44 b2 ef bd a5 d0 fa 3d 79 90 7d bd 34 18 e5 3d
       -0.11703923 0.12246827 -0.061905358 0.11186257
0003a0 08 f9 dd be 7a de 84 be f8 34 79 be 40 b9 6f be
       -0.43354058 -0.25950986 -0.24336612 -0.23410511
0003b0 67 2c e0 be e1 b9 ed bc 7e ba 47 3d ad 9b 36 be
       -0.43783876 -0.029019298 0.048761837 -0.17832823
0003c0 5a 38 79 3e 01 ea b2 3d 11 67 52 be 61 bd 42 bf
       0.24337903 0.08736039 -0.20547129 -0.7607022
0003d0 ab 8e 0e bf a3 08 61 3e ba a1 da bd b4 94 42 3d
       -0.55686444 0.21975951 -0.10675378 0.047505096
0003e0 cb e9 34 3d 6a 40 8c bd 7b 32 44 3e ae ee d4 bd
       0.044168275 -0.068482235 0.19159882 -0.10397087
0003f0 d5 29 70 be fb 69 8d 3e 14 33 e0 be e1 91 4e bd
       -0.23453458 0.2761992 -0.4378897 -0.05043209

layers.3.bias f4 [32]
000000 63 5b 0f 3f fd f4 ee 3d a2 67 cb 3c f0 ce 95 be
       0.5599882 0.116678216 0.02482969 -0.29259443
000010 b5 8c 3c 3e 27 a6 d7 bd 20 e2 33 3e df 44 6a bf
       0.1841305 -0.10529738 0.17566729 -0.9151134
000020 73 09 0a be 82 a6 be be 3c 02 ab 3d 94 aa 7e be
       -0.13480167 -0.3723641 0.083500355 -0.24869758
000030 34 12 d4 3e 64 7d 5c 3e 5c 33 dd bc 02 0f 09 3e
       0.41420138 0.21532208 -0.02700203 0.13384631
000040 10 e7 5b 3e e6 9f 92 3e 27 12 43 3e e5 1f 88 bd
       0.21474862 0.28637618 0.19049893 -0.066467084
000050 41 e1 3a 3b 0a 82 2e bd 21 f8 f1 be d3 f8 bc bd
       0.002851561 -0.042604484 -0.4725962 -0.09227147
000060 db 2f 87 3e 61 c2 8e 3d 11 99 f0 bd fa 14 9c 3e
       0.26403698 0.069706686 -0.11747945 0.30484754
000070 c1 5d a8 be 45 f2 92 3e c0 39 f9 3e b6 1b 4f bf
       -0.3288403 0.28700462 0.48676872 -0.8090166

layers.5.weight f4 [16, 32]
000000 83 b0 ac 3e eb bb f3 3e fd 14 e8 bd cf 98 dd bd
       0.33728418 0.47604308 -0.11332128 -0.108201616
000010 8c 58 52 3e e6 d5 6a 3e 44 c7 ac 3d 7e a8 48 be
       0.2054159 0.22933158 0.084364444 -0.19595525
000020 54 6b d2 bd fb 4e 0b 3e 33 6b ca 3e e7 7c 31 3e
       -0.102743775 0.13604347 0.39534912 0.17332803
000030 86 e6 9c 3e f0 27 95 be 65 51 60 bd 9e 5d c5 3e
       0.30644625 -0.29132032 -0.054765124 0.38547987
000040 9f a1 d6 ba 25 8e bc 3e 68 fc 60 be 2a d1 05 3f
       -0.0016375071 0.36827198 -0.21971285 0.52272284
000050 16 c0 98 3d 91 f0 97 3e 27 47 5e 3e 53 75 c6 3e
       0.074585125 0.29675725 0.2170683 0.38761386
000060 67 2f 3a bf 05 bd 4e 3e 4e 4d b7 bd 6e 9b ee bd
       -0.7272858 0.20189293 -0.089502916 -0.116507396
000070 e6 40 0c bd 85 2c 55 3f 09 3d 28 3f 7a d9 22 bf
       -0.03424158 0.83271056 0.6571813 -0.6361309
000080 32 c9 8c 3e 6f 05 04 3f cd 47 0c 3e d2 9b 01 be
       0.2749725 0.5157079 0.13699265 -0.12657097
000090 7d a3 a5 3d 52 28 82 3d af 56 5e 3a 40 9e 44 be
       0.080878235 0.06355347 0.0008481545 -0.19200993
0000a0 e0 bc 06 be 52 ff 45 bc 9c dd ce 3e ab c9 47 3d
       -0.13157988 -0.012084799 0.4040345 0.04877631
0000b0 f1 76 72 bd eb e8 23 be 86 89 63 bc 8a 4d e7 3e
       -0.059195463 -0.1600682 -0.013887769 0.45176345
0000c0 d6 6f 42 be bd d0 d1 3e de e5 cc be 5b 70 ae 3e
       -0.18987975 0.40979567 -0.40019125 0.34070095
0000d0 19 fd c3 3e 0a 74 df be 46 36 06 3e b5 7f 92 3e
       0.38279036 -0.43643218 0.13106641 0.28613058
0000e0 98 bb 1b bf 33 11 84 3e 08 cf e0 bd 8a 92 88 3d
       -0.6083312 0.25794372 -0.10976988 0.06668575
0000f0 48 df af 3d f5 e5 ea 3e d7 26 86 3e eb c0 d4 3d
       0.085875094 0.45878568 0.26201507 0.10388359
000100 a3 db 08 bf 08 b8 bc 3e 95 68 cb 3b 9e 91 db 3d
       -0.5346014 0.36859155 0.0062075355 0.10721134
000110 1f 22 d6 3d 4f 40 71 3e 87 4a 8f 3e ff ba ca be
       0.10455727 0.23559688 0.27986547 -0.39595792
000120 27 dc da 3d 99 8e 7e bc 75 2f ba 3e 67 7d f1 3d
       0.10686522 -0.015536928 0.36364332 0.11791497
000130 60 bb 9b 3e 63 fa 80 bd f1 5a 53 3e 96 ef 48 3c
       0.30416393 -0.062977575 0.2064016 0.012264153
000140 85 fc e5 3d a7 32 aa 3e 78 15 b0 3d cd 42 91 3e
       0.11229805 0.3324177 0.08597845 0.28371277
000150 1c 13 1b bc 8a a8 c4 3d 21 f8 84 be 15 7b f1 3e
       -0.009465005 0.09602459 -0.25970557 0.47164217
000160 8b 26 c9 be cf 98 3d 3e b5 46 3a 3e e5 b5 2b bf
       -0.39287218 0.18515323 0.18191035 -0.67074424
000170 26 4f f8 be b7 91 4c 3d 45 e3 13 be 2d 87 2b be
       -0.48497885 0.049943652 -0.14442165 -0.16750784
000180 62 84 1a bf 6e 1d 74 3e 49 05 b4 be 19 e3 9d 3d
       -0.6035825 0.23839352 -0.35160282 0.07709331
000190 f6 85 31 bc 72 e6 1a be cd 29 1b be 3b 46 8b 3d
       -0.010835161 -0.1512697 -0.15152664 0.06800505
0001a0 09 dc de 3d 7c ee 91 3d 81 b3 59 be e1 cc ca be
       0.10881812 0.071255654 -0.21259882 -0.39609435
0001b0 1f 10 0c bf a6 5b cf bd a8 45 cb bd 8c 7b f2 3c
       -0.547121 -0.101249024 -0.09925395 0.029599927
0001c0 9f 3d 20 be 9f 08 4f 3d fc a9 97 3b 46 85 0e 3e
       -0.15648507 0.05054533 0.004628418 0.13918027
0001d0 58 8b 81 bd c6 01 19 be 65 e1 01 3e c7 28 7d 3e
       -0.06325406 -0.14942083 0.12683637 0.24722587
0001e0 55 92 7d bd 06 4d 47 3e 84 5c ea bd c8 8b 13 bf
       -0.06190713 0.19462976 -0.11443427 -0.57635164
0001f0 53 61 8e 3d 08 df 96 bd 80 d8 7b 3e df 5a 83 be
       0.06952157 -0.073667586 0.24594307 -0.25655267
000200 5b 43 26 3f 4c 3b fc 3e ef 3e a2 be 1b 02 f4 be
       0.64946526 0.4926399 -0.3168864 -0.47657856
000210 36 ea 4a 3d 2f 84 f6 bd 9c 6f 0a 3d 00 a4 6c be
       0.049539767 -0.12036931 0.033797845 -0.23109436
000220 7f f7 fa bc e1 df 63 3c f5 9e d9 3e 48 bd 8f 3d
       -0.030635593 0.013908357 0.42504087 0.070185244
000230 e2 19 79 3f fa 7f 3c bf 6c b6 12 3c 2d 4d 70 3e
       0.9730512 -0.73632777 0.008954626 0.2346694
000240 b7 37 eb be c4 07 dd 3e 45 6b 40 bf 23 61 bb be
       -0.45940945 0.43169987 -0.7516368 -0.36597547
000250 0e 69 97 be 28 f5 17 3f d1 15 4a 3e 4e 36 2c 3e
       -0.29572338 0.59358454 0.19734885 0.1681759
000260 c7 e4 54 be 52 73 f1 3d 9c 44 ef bb d7 4f 04 3e
       -0.20790397 0.11789574 -0.00730188 0.12921081
000270 00 9c ff 3d cc 0d d7 be ac 40 61 3f a7 ad 84 bd
       0.124809265 -0.42002714 0.87989306 -0.06478434
000280 5e 90 34 bf 1b d3 05 bd 80 53 d2 bd 93 ca 27 bf
       -0.70532787 -0.03267203 -0.102698326 -0.6554348
000290 f6 c4 e5 be be 95 99 3e 73 10 6c be 54 04 01 bf
       -0.44876832 0.29997057 -0.2305315 -0.5039723
0002a0 23 ca 32 be 04 91 82 3d cf 7f cb be 86 c8 a2 be
       -0.17459922 0.06375316 -0.39745948 -0.31793612
0002b0 ca 86 89 3e be fe 51 3e 9a cf ac 3d c7 28 50 bf
       0.26860648 0.20507333 0.08438034 -0.8131222
0002c0 92 94 cc 3e c3 ba a6 3c 66 55 51 3e 51 66 0d bf
       0.399571 0.020352727 0.20442733 -0.5523425
0002d0 23 5d 61 3e 28 87 94 bf aa db d4 3e 3d af f8 3d
       0.22008185 -1.1603746 0.4157384 0.12142799
0002e0 3c 6d ec 3d 7a d8 9c 3e fe 8b aa bd 3d e0 c4 3e
       0.11544272 0.3063391 -0.08327483 0.3845233
0002f0 00 9b 36 be 55 2c 20 3f a7 ae 39 3f 93 6c 52 3e
       -0.17832565 0.62567645 0.72532123 0.2054923
000300 35 22 cf be 8e 60 fe 3c bf 2e 4d 3d 7f 78 96 3e
       -0.40455785 0.0310519 0.05009341 0.29388806
000310 79 13 f8 3c 3e 52 77 bd 59 00 36 bd d6 18 b1 bf
       0.030282723 -0.060381167 -0.044433925 -1.3835704
000320 d8 06 9b 3d 79 b8 81 be 40 a4 1e be 60 d0 a9 bf
       0.07569665 -0.25336054 -0.15492344 -1.3266716
000330 92 ef e2 3e af 22 7e be e7 d1 de bc af 4e 54 3e
       0.44323403 -0.24817918 -0.027199699 0.2073314
000340 98 57 84 3e ee 76 12 3f 14 ec c2 bd 5f 50 c4 3c
       0.2584808 0.5721272 -0.095176846 0.023964105
000350 85 3e a4 bc c1 73 92 bf bb 13 75 be 51 a5 77 3e
       -0.020049343 -1.1441575 -0.23933308 0.24184157
000360 7f dd d7 3c 81 b0 87 3e ce bf 10 bd 26 7e 5c 3e
       0.026350735 0.2650185 -0.03533917 0.21532497
000370 6a 5a 94 bf f9 43 6c be 5f d2 4d bf 8d 61 92 be
       -1.1590092 -0.23072805 -0.80399126 -0.2859005
000380 05 9d 28 3e 07 ee 67 3e 28 f1 b7 3d 00 42 2e be
       0.16466148 0.22649394 0.08981544 -0.17017365
000390 e4 fe de 3d 66 d4 cf be 91 00 98 be 17 e4 1c be
       0.1088846 -0.40591735 -0.29687932 -0.15321384
0003a0 f9 5f 3d 3d c5 0b a5 bd 87 c9 85 3e 78 f1 3a 3e
       0.046234105 -0.080588855 0.26130316 0.18256176
0003b0 95 2b b0 3e 2f 87 3c bf bb ec 13 3d 28 8f ca 3e
       0.3440825 -0.73643774 0.036114436 0.39562345
0003c0 d7 31 3a bc 94 2d 84 3e 94 6b 18 bf 12 50 5f bf
       -0.011364422 0.25816023 -0.5953915 -0.8723155
0003d0 d2 bb 24 bf d3 fe ff 3e 0f 93 f0 3e 12 16 bf 3d
       -0.6434909 0.49999103 0.46987197 0.093303815
0003e0 f2 79 16 bf 11 5e 0b 3e 00 f6 ba 3d ed 98 a8 bd
       -0.58779824 0.13610102 0.09128952 -0.08232293
0003f0 da b1 62 be fa 08 a3 3d 65 26 c6 3e 54 14 f5 bd
       -0.22138157 0.079606965 0.38701168 -0.11966768

layers.5.bias f4 [16]
000000 9e be 3d be 5c dc 0a 3c 66 0d cf 3e 71 d0 47 bd
       -0.18529746 0.008475389 0.4043991 -0.04878277
000010 fc 71 1e 3d 22 e4 83 3e 76 62 e9 3e 04 da 71 3e
       0.038682923 0.2575999 0.45582932 0.23618323
000020 21 1d 92 be 48 8f 96 3e 45 3d 54 3d 38 66 64 bf
       -0.2853785 0.2940619 0.051816244 -0.89218473
000030 b9 9a 4e be be 70 17 bf 6b 2e 9e 3e a8 2a 30 3e
       -0.2017621 -0.59156406 0.3089479 0.17203772

layers.7.weight f4 [5, 16]
000000 8d 36 ce 3d 89 57 0d 3d 56 f6 14 bc f2 36 51 be
       0.100689985 0.03450731 -0.009091934 -0.20431116
000010 40 40 c8 3e 72 2c 57 be c0 28 23 be bc c6 18 3e
       0.3911152 -0.21013048 -0.15933514 0.14919561
000020 23 33 98 bf 3a 82 1d bf ab 79 d5 be 2c d7 4d bf
       -1.1890606 -0.61526835 -0.41694388 -0.8040645
000030 8c 9b b1 be 10 8d fa bf 07 58 af be 2e d2 93 be
       -0.34688985 -1.9574299 -0.34246847 -0.28871292
000040 37 b9 f0 3d 38 73 2b 3e 44 e0 aa 3d 6f f4 47 be
       0.11754077 0.16743171 0.083435565 -0.19526838
000050 ee c7 1f 3e 54 82 e8 be 07 c4 8c bd 4c cc ab be
       0.15603611 -0.45411932 -0.06873327 -0.33554304
000060 1a cf 04 be 87 5f 76 3d 99 5e 65 bf 2d ef b6 3d
       -0.12969628 0.060149696 -0.8959747 0.08932338
000070 70 92 23 be 6d ae 06 bf 48 e3 a8 3e 97 8a 24 be
       -0.1597383 -0.526099 0.32985902 -0.16068493
000080 b6 2c 26 c1 d3 bd 32 c1 7b d7 b9 c0 6b 99 6b bf
       -10.385916 -11.171344 -5.807554 -0.9203097
000090 55 3b 00 c1 b5 46 09 c1 72 a7 17 c1 7f f2 21 c0
       -8.014485 -8.579762 -9.47838 -2.5304258
0000a0 00 0f e8 be fc 07 76 c0 c9 0a 60 bf d4 3b 38 bf
       -0.45323944 -3.8442373 -0.87516457 -0.7196629
0000b0 96 91 76 be 5d d1 e3 bd 7c 05 18 c1 c7 98 6a c0
       -0.24078974 -0.11123917 -9.501339 -3.6655748
0000c0 d7 1a 7e bd 60 60 9e bd 88 b0 3a 3e fd 8e f0 bd
       -0.062037315 -0.07733226 0.18231404 -0.11746023
0000d0 f7 37 2e bf 9a f7 89 3d 65 bc b1 3e ca 92 19 bf
       -0.68054146 0.067366794 0.34714046 -0.5998961
0000e0 33 0c b3 bd 7d 7f e0 3c 8d 64 dc 3c 6b fc 29 bf
       -0.08742561 0.027404541 0.026903415 -0.66400784
0000f0 ae 3d f6 bc 4a 62 05 bf d7 6e be 3e 79 f6 bf 3e
       -0.030058708 -0.521031 0.3719394 0.3749273
000100 93 2a 03 bf e2 ad 9d be f6 ce da be de 3c ce be
       -0.5123684 -0.30796725 -0.42736024 -0.40280813
000110 ae 65 0e bf 37 e7 2b 3e fc 32 7a be ec 9b 46 bf
       -0.556239 0.1678742 -0.24433511 -0.7758167
000120 1b 04 cf be aa ce 8e 3e 4b ec 01 3f 45 9b 43 be
       -0.4043282 0.27892047 0.5075118 -0.191022
000130 80 15 24 bf 0f c9 1d bf 88 cd 77 3e 62 e6 83 3e
       -0.64095306 -0.61634916 0.24199498 0.25761706

layers.7.bias f4 [5]
000000 2c 07 de bd 7b 02 1e 3e a6 49 22 c1 b0 fd 98 3d
       -0.10841212 0.15430634 -10.142981 0.07470262
000010 31 e1 50 be
       -0.20398404
